…
  "question_title": "Input 0 of layer dense is incompatible with the layer: expected axis -1 of input shape to have value 12544 but received input with shape (None, 4096)",
  "question_id": "question-summary-67770895",
  "timestamps": "2021-05-31 09:11:12Z",
  "votes": "0",
  "owner_id": "https://stackoverflow.com/users/12548461/suharjin",
  "views": "Viewed 74 times",
  "question_body": "I created a Deep Learning project using Tensorflow and a flask that predicts covid-19 using x-ray image data I took from the Kaggle website. I'm having a problem that I can't understand..]).model.summary().conv2d (Conv2D) (None, 148, 148, 32) 896.max_pooling2d (MaxPooling2D) (None, 74, 74, 32) 0.conv2d_1 (Conv2D) (None, 72, 72, 64) 18496.max_pooling2d_1 (MaxPooling2 (None, 36, 36, 64) 0.conv2d_2 (Conv2D) (None, 34, 34, 128) 73856.max_pooling2d_2 (MaxPooling2 (None, 17, 17, 128) 0.conv2d_3 (Conv2D) (None, 15, 15, 256) 295168.max_pooling2d_3 (MaxPooling2 (None, 7, 7, 256) 0.flatten (Flatten) (None, 12544) 0.dense (Dense) (None, 512) 6423040.Total params: 6,812,995 Trainable params: 6,812,995 Non-trainable params: 0",
  "location": "No location",
  "latitude": "None",
  "longitude": "None",
  "tag": " python  flask  tensorflow ",
  "code_snippet": 1,
  "comments": 1,
  "answers": 0,
  "closed": 0,
  "first_answer": "No answers"
},{
  "_id": 3254,
  "question_title": "How to enable/disable (show/hide) child widgets in a stateless widget (screen)",
…
