…
2021-01-29 2.0 61.626 0.051 NaN 12.04 AFG Asia Afghanistan 2021-01-30 1.0 61.652 0.026 NaN 12.04.enter image description here",question-summary-66922083,Bokeh lineplot with dropdown menu is not linked / white screen, python  callback  bokeh ,2021-04-02 16:07:49Z,Viewed 31 times,1
3253,0,0,1,1,No answers,None,No location,None,https://stackoverflow.com/users/12548461/suharjin,"I created a Deep Learning project using Tensorflow and a flask that predicts covid-19 using x-ray image data I took from the Kaggle website. I'm having a problem that I can't understand..]).model.summary().conv2d (Conv2D) (None, 148, 148, 32) 896.max_pooling2d (MaxPooling2D) (None, 74, 74, 32) 0.conv2d_1 (Conv2D) (None, 72, 72, 64) 18496.max_pooling2d_1 (MaxPooling2 (None, 36, 36, 64) 0.conv2d_2 (Conv2D) (None, 34, 34, 128) 73856.max_pooling2d_2 (MaxPooling2 (None, 17, 17, 128) 0.conv2d_3 (Conv2D) (None, 15, 15, 256) 295168.max_pooling2d_3 (MaxPooling2 (None, 7, 7, 256) 0.flatten (Flatten) (None, 12544) 0.dense (Dense) (None, 512) 6423040.Total params: 6,812,995 Trainable params: 6,812,995 Non-trainable params: 0",question-summary-67770895,"Input 0 of layer dense is incompatible with the layer: expected axis -1 of input shape to have value 12544 but received input with shape (None, 4096)", python  flask  tensorflow ,2021-05-31 09:11:12Z,Viewed 74 times,0
3254,0,0,0,2,No answers,None,No location,None,https://stackoverflow.com/users
…
